detect.lite (tflite, 9584 bytes, 5 tensors)

unknown_0 i1 [8] scale=0.01937089 zero_point=0
00000000: 8114 95d5 aec6 c08f
-2.460103 0.3874178 -2.0726852 -0.83294827 -1.5884129 -1.1235116 -1.2397369 -2.1889105

unknown_2 i1 [16] scale=0.011059551 zero_point=0
00000000: dad0 810b ed07 dc17 9215 1bcb ff2a 2a01
-0.42026293 -0.5308584 -1.404563 0.121655054 -0.21013147 0.07741685 -0.39814383 0.25436968
-1.2165506 0.23225056 0.29860786 -0.5861562 -0.011059551 0.4645011 0.4645011 0.011059551

sequential/y_pred/MatMul;StatefulPartitionedCall/sequential/y_pred/MatMul i1 [4, 208] scale=0.01353103 zero_point=0
00000000: f7f7 1ef8 25e6 f3e8 1d17 ebbb fc09 0cba
00000010: f6f9 1403 1dfb e5e4 1700 2fee f405 1202
00000020: 00fe 10eb 2418 edf1 0b0b 16e4 f4f3 0214
00000030: f505 119c 2127 e6e4 120a 0ad6 d609 040b
00000040: fe0c 12ce 231c f5cc 1516 1adb cd0f fe13
00000050: f40f 16d2 131e f2d8 1608 08ec bb0c fe15
00000060: f2fc 19ce 1c2a f8e7 1705 10e1 cc0d 0e17
00000070: ef07 26ba 2416 f2ef 0901 12da dc05 fb14
00000080: 0014 14d2 1c20 f2dd 0bea 0ef4 dc10 f916
00000090: fbf2 19c9 1926 f7cb ffea 1ae6 ba04 0b05
000000a0: fbf2 15ca 1b24 f7d7 fff4 1508 dd14 0308
000000b0: 08f2 01da 2325 fce3 04dd 03e9 c00a fc12
000000c0: 04fc 17f5 0e20 0ef4 dfff e3f3 fbfa 00f9
000000d0: 1404 d507 c249 0922 de08 0f1f 0ad1 f531
000000e0: 170b e01c e614 fd20 bef5 e500 06d7 e1f7
000000f0: 0802 060f d3d5 040c bdee e410 0ccc deea
-0.12177927 -0.12177927 0.4059309 -0.10824824 0.50064814 -0.3518068 -0.1759034 -0.32474473
0.39239988 0.3112137 -0.28415164 -0.9336411 -0.05412412 0.12177927 0.16237237 -0.9471721
-0.1353103 -0.09471721 0.2706206 0.04059309 0.39239988 -0.06765515 -0.36533782 -0.37886885
0.3112137 0.0 0.63595843 -0.24355854 -0.16237237 0.06765515 0.24355854 0.02706206
0.0 -0.02706206 0.21649648 -0.28415164 0.48711708 0.32474473 -0.25708959 -0.20296545
0.14884134 0.14884134 0.29768267 -0.37886885 -0.16237237 -0.1759034 0.02706206 0.2706206
-0.14884134 0.06765515 0.23002751 -1.353103 0.446524 0.5277102 -0.3518068 -0.37886885
0.24355854 0.1353103 0.1353103 -0.5683033 -0.5683033 0.12177927 0.05412412 0.14884134
-0.02706206 0.16237237 0.24355854 -0.6765515 0.47358605 0.37886885 -0.14884134 -0.7036136
0.28415164 0.29768267 0.3518068 -0.50064814 -0.69008255 0.20296545 -0.02706206 0.25708959
-0.16237237 0.20296545 0.29768267 -0.6224274 0.25708959 0.4059309 -0.18943442 -0.5412412
0.29768267 0.10824824 0.10824824 -0.2706206 -0.9336411 0.16237237 -0.02706206 0.28415164
-0.18943442 -0.05412412 0.33827576 -0.6765515 0.37886885 0.5683033 -0.10824824 -0.33827576
0.3112137 0.06765515 0.21649648 -0.41946194 -0.7036136 0.1759034 0.18943442 0.3112137
-0.23002751 0.09471721 0.51417917 -0.9471721 0.48711708 0.29768267 -0.18943442 -0.23002751
0.12177927 0.01353103 0.24355854 -0.51417917 -0.48711708 0.06765515 -0.06765515 0.2706206
0.0 0.2706206 0.2706206 -0.6224274 0.37886885 0.43299296 -0.18943442 -0.47358605
0.14884134 -0.29768267 0.18943442 -0.16237237 -0.48711708 0.21649648 -0.09471721 0.29768267
-0.06765515 -0.18943442 0.33827576 -0.74420667 0.33827576 0.51417917 -0.12177927 -0.7171446
-0.01353103 -0.29768267 0.3518068 -0.3518068 -0.9471721 0.05412412 0.14884134 0.06765515
-0.06765515 -0.18943442 0.28415164 -0.73067564 0.36533782 0.48711708 -0.12177927 -0.55477226
-0.01353103 -0.16237237 0.28415164 0.10824824 -0.47358605 0.2706206 0.04059309 0.10824824
0.10824824 -0.18943442 0.01353103 -0.51417917 0.47358605 0.50064814 -0.05412412 -0.39239988
0.05412412 -0.47358605 0.04059309 -0.3112137 -0.86598593 0.1353103 -0.05412412 0.24355854
0.05412412 -0.05412412 0.3112137 -0.14884134 0.18943442 0.43299296 0.18943442 -0.16237237
-0.446524 -0.01353103 -0.39239988 -0.1759034 -0.06765515 -0.08118618 0.0 -0.09471721
0.2706206 0.05412412 -0.5818343 0.09471721 -0.8389239 0.9877652 0.12177927 0.46005502
-0.46005502 0.10824824 0.20296545 0.41946194 0.1353103 -0.63595843 -0.14884134 0.6630205
0.3112137 0.14884134 -0.43299296 0.37886885 -0.3518068 0.2706206 -0.04059309 0.43299296
-0.893048 -0.14884134 -0.36533782 0.0 0.08118618 -0.55477226 -0.41946194 -0.12177927
0.10824824 0.02706206 0.08118618 0.20296545 -0.6088964 -0.5818343 0.05412412 0.16237237
-0.906579 -0.24355854 -0.37886885 0.21649648 0.16237237 -0.7036136 -0.46005502 -0.29768267

sequential/conv1d/conv1d;StatefulPartitionedCall/sequential/conv1d/conv1d1 i1 [8, 1, 3, 13]
00000000: 1b26 b2e7 57d5 c423 1ee1 e90a 0d32 290e
00000010: b505 12d4 e92a 0ff4 09fb 1d7f 1093 1e25
00000020: f7e8 0629 ff01 0181 dbfd f901 0ce2 01fb
00000030: f8fa 06e9 bb02 f211 0b05 f2f7 0d06 fc12
00000040: 05fb f709 f325 f1fb 1203 ff04 fbfe 3113
00000050: ef1e 8c3b ecec 0af6 c01c f981 0ed6 cb1e
00000060: dd31 e814 0dfd 02ee efd0 e728 e3f7 2947
00000070: d130 08d5 2281 ff09 fe04 f705 fa01 fc00
00000080: 03fd 390a ddf6 fa08 07fd fb02 fc06 ff38
00000090: 0014 0107 08f8 0202 0102 fc01 812c d5ee
000000a0: 4206 de16 02f6 f80e 0755 ffc6 fc0a e3fc
000000b0: 07f4 f5f2 02f5 49fd f82e e2f0 1504 fafc
000000c0: 0109 043a e401 e910 e702 f0ff ff02 0504
000000d0: 0d3d 1318 0dfd 03fc 1aff 0d01 0ce5 8124
000000e0: f910 fbf4 f1fe 0107 f7ff cc1c e5fd c303
000000f0: e3f9 fbee 0201 f1ea 307f 406f 0f07 14ff
27 38 -78 -25 87 -43 -60 35
30 -31 -23 10 13 50 41 14
-75 5 18 -44 -23 42 15 -12
9 -5 29 127 16 -109 30 37
-9 -24 6 41 -1 1 1 -127
-37 -3 -7 1 12 -30 1 -5
-8 -6 6 -23 -69 2 -14 17
11 5 -14 -9 13 6 -4 18
5 -5 -9 9 -13 37 -15 -5
18 3 -1 4 -5 -2 49 19
-17 30 -116 59 -20 -20 10 -10
-64 28 -7 -127 14 -42 -53 30
-35 49 -24 20 13 -3 2 -18
-17 -48 -25 40 -29 -9 41 71
-47 48 8 -43 34 -127 -1 9
-2 4 -9 5 -6 1 -4 0
3 -3 57 10 -35 -10 -6 8
7 -3 -5 2 -4 6 -1 56
0 20 1 7 8 -8 2 2
1 2 -4 1 -127 44 -43 -18
66 6 -34 22 2 -10 -8 14
7 85 -1 -58 -4 10 -29 -4
7 -12 -11 -14 2 -11 73 -3
-8 46 -30 -16 21 4 -6 -4
1 9 4 58 -28 1 -23 16
-25 2 -16 -1 -1 2 5 4
13 61 19 24 13 -3 3 -4
26 -1 13 1 12 -27 -127 36
-7 16 -5 -12 -15 -2 1 7
-9 -1 -52 28 -27 -3 -61 3
-29 -7 -5 -18 2 1 -15 -22
48 127 64 111 15 7 20 -1

sequential/conv1d_1/conv1d;StatefulPartitionedCall/sequential/conv1d_1/conv1d1 i1 [16, 1, 3, 8]
00000000: f9f4 e111 2d21 e5f5 b4e5 d5c7 6a04 1bfd
00000010: 81f0 f905 89fa 37fb 8102 f10a 14f8 1c01
00000020: cafb f714 fcf6 f1f9 ddf8 e208 070a f1e8
00000030: 8c12 3a0b e1d2 f0ee defb 0807 f1ce 1258
00000040: ae81 0cdb 0ef3 f4f0 f294 07d1 04e6 e9d8
00000050: e9dc f2f3 fcf4 fde6 e1f7 0d06 f12b b681
00000060: e3f5 0ef6 02fc 060c f5b5 fdf8 00ff fcf9
00000070: 0b81 f7f3 03ff e6d3 2996 e09a 05ee f3bc
00000080: f0cc cbd6 ebda f8d3 f2c0 c9b4 81f6 dabe
00000090: 0498 fcfd 09ff aaff fda1 0a81 0202 f1f5
000000a0: f7ee 0aea 09fc 021c dde8 8123 0b21 d0e8
000000b0: deb7 bf1d 0add cbe1 c1d9 efbc 9426 09fe
000000c0: 0e08 fcff e5ff f829 feee 09eb fcfd f2f7
000000d0: f481 23df eeee d807 01e8 16f3 ee03 dc1b
000000e0: 06f0 0a81 defd 8fe9 e8ff 18d7 030c dee3
000000f0: e581 fcc5 04ee ff01 09cb cfbc 0af9 fe01
-7 -12 -31 17 45 33 -27 -11
-76 -27 -43 -57 106 4 27 -3
-127 -16 -7 5 -119 -6 55 -5
-127 2 -15 10 20 -8 28 1
-54 -5 -9 20 -4 -10 -15 -7
-35 -8 -30 8 7 10 -15 -24
-116 18 58 11 -31 -46 -16 -18
-34 -5 8 7 -15 -50 18 88
-82 -127 12 -37 14 -13 -12 -16
-14 -108 7 -47 4 -26 -23 -40
-23 -36 -14 -13 -4 -12 -3 -26
-31 -9 13 6 -15 43 -74 -127
-29 -11 14 -10 2 -4 6 12
-11 -75 -3 -8 0 -1 -4 -7
11 -127 -9 -13 3 -1 -26 -45
41 -106 -32 -102 5 -18 -13 -68
-16 -52 -53 -42 -21 -38 -8 -45
-14 -64 -55 -76 -127 -10 -38 -66
4 -104 -4 -3 9 -1 -86 -1
-3 -95 10 -127 2 2 -15 -11
-9 -18 10 -22 9 -4 2 28
-35 -24 -127 35 11 33 -48 -24
-34 -73 -65 29 10 -35 -53 -31
-63 -39 -17 -68 -108 38 9 -2
14 8 -4 -1 -27 -1 -8 41
-2 -18 9 -21 -4 -3 -14 -9
-12 -127 35 -33 -18 -18 -40 7
1 -24 22 -13 -18 3 -36 27
6 -16 10 -127 -34 -3 -113 -23
-24 -1 24 -41 3 12 -34 -29
-27 -127 -4 -59 4 -18 -1 1
9 -53 -49 -68 10 -7 -2 1
